saved_model/final_model.npz (npz, 2246 bytes, 5 tensors)

arr_0 f4 [8, 12]
000000 23 8b 6b be 84 e0 47 be f1 6a 72 be 1a f6 32 be
       -0.23002295 -0.1951924 -0.23673607 -0.17476693
000010 44 41 6b 3e 25 19 67 be 63 9a 4b bd 34 86 08 bd
       0.22974116 -0.22568186 -0.04970778 -0.03333111
000020 a3 9d e3 bd ce 63 ea 3e 1c 0d c3 bb 14 10 7f 3e
       -0.11114051 0.4577927 -0.0059524905 0.24908477
000030 c9 c7 19 3e 2c df b4 be 1e 8a 98 3e 66 f9 8d be
       0.15017618 -0.35326517 0.29792875 -0.27729338
000040 15 ea b3 be 04 64 64 be 4c 8b 97 3e 50 84 30 bd
       -0.35139528 -0.22303778 0.29598463 -0.043094933
000050 8c 3b 87 be 10 3c d9 3d 8e 29 e4 3d f7 58 3e be
       -0.26412618 0.10607159 0.111407384 -0.18588625
000060 2e 9a de 3d 9a b9 99 3e 2c 40 50 bb 23 79 cb 3e
       0.10869251 0.30024415 -0.003177653 0.39740857
000070 2c 35 e4 3d 69 b7 eb 3d 2a 87 bf be 67 24 e7 be
       0.11142954 0.11509592 -0.3740781 -0.4514496
000080 61 76 9d be e3 6b 2e 3d 6a 10 74 be fe f7 c3 3e
       -0.30754378 0.042583358 -0.23834386 0.3827514
000090 be 9f 0a 3e 8e 29 ff bd a1 d4 b9 bd ec 15 08 3e
       0.135375 -0.12459098 -0.09073759 0.13289613
0000a0 00 86 05 be 11 8a ce 3c aa 54 1a be 1f 84 4c 3d
       -0.13039398 0.02521232 -0.1507136 0.049930688
0000b0 1c cc 6d be a2 2c b0 bc d5 46 21 3e 37 78 9d be
       -0.23222393 -0.021505658 0.15749677 -0.3075578
0000c0 32 22 06 3e 4c c9 1d bd db 14 83 3e dc 75 bf bd
       0.13098982 -0.03852205 0.2560185 -0.09348652
0000d0 95 5d 7e bd b8 e5 3f 3e 12 55 89 3e 70 b2 50 3d
       -0.062100966 0.18739974 0.26822716 0.05095142
0000e0 ce 0a 2c be b6 4f 6d 3e 5b f9 20 3e ae cd b7 3e
       -0.16800997 0.23174939 0.15720122 0.3589911
0000f0 af b4 ca 3b bb 87 16 be a2 5a 0c 3e e2 b1 09 3d
       0.00618609 -0.14700215 0.13706449 0.033616908
000100 6a c5 84 be 82 e9 37 3d d9 31 04 bd 66 8e cd 3c
       -0.25931865 0.044900425 -0.0322741 0.025092315
000110 68 cf 3d be 37 95 29 be db 37 24 3e 7d 06 38 3e
       -0.1853615 -0.16560827 0.16036932 0.17971225
000120 7b ec 16 be f0 a0 1d 3e 99 47 83 be 9c 95 cb 3c
       -0.14738648 0.15393424 -0.25640562 0.024851613
000130 9b a4 72 bd 4b a6 ae 3e 36 c4 70 be 4f 45 23 be
       -0.05923901 0.34111246 -0.23512349 -0.15944408
000140 cc 3e 32 3d 59 62 de 3d 3f cc 91 3d 80 c6 39 be
       0.04351692 0.10858602 0.07119035 -0.18142128
000150 90 16 51 bb 11 a0 63 3e 0d cf 8e 3e 80 d8 3f 3e
       -0.0031904317 0.22229029 0.27892342 0.18734932
000160 d2 c8 f1 bd 0d 46 81 3e cc 42 46 bd 98 55 52 be
       -0.118058816 0.25248757 -0.048403546 -0.20540464
000170 b3 5b e7 bd 93 16 33 3d a0 8c fb bd fc 30 cc bd
       -0.11296787 0.0437227 -0.122826815 -0.099702805

arr_1 f4 [12]
000000 24 18 1c be 10 d2 51 3e ef eb 1d be 7a fe 56 be
       -0.15243584 0.20490289 -0.15422033 -0.20995513
000010 58 4c 23 3d 58 c6 4d be 50 c8 2c be a0 09 34 3e
       0.03986773 -0.20095193 -0.16873288 0.17581797
000020 ec f0 c9 bd 5a de a0 3e 81 3e 39 be ac b4 6b be
       -0.09860405 0.3141964 -0.1809025 -0.2301814

arr_2 f4 [12, 6]
000000 f2 87 80 3e 41 be 04 bd 76 f5 e1 bd 62 88 62 3e
       0.25103718 -0.032408003 -0.11033146 0.22122338
000010 07 81 e6 bd f3 33 0b bc e4 b2 19 be 49 19 b8 bc
       -0.11255079 -0.008496272 -0.15009648 -0.022472994
000020 f6 5f 67 3e 75 f0 28 bd 20 a2 c2 3e a5 4c 39 be
       0.225952 -0.041244943 0.38014317 -0.18095644
000030 d4 e5 9e be bd 16 03 be fe 80 5f 3e 60 f9 77 3e
       -0.3103472 -0.12801643 0.2182655 0.24216223
000040 0c 62 95 3d a8 10 b7 be 0e 91 e4 ba 82 af 92 be
       0.072940916 -0.35754895 -0.0017438249 -0.28649527
000050 de bf 1c be 11 87 ec 3d 1e d3 2a be de 69 dd 3b
       -0.15307567 0.115491994 -0.16682097 0.006757005
000060 be dd 10 be d1 43 d6 3e 9d 2d c0 be 76 ab e3 3d
       -0.14147088 0.41848615 -0.375348 0.11116688
000070 69 1e 38 3e 74 ff 6a 3e bc 45 77 be 2a fd 0f be
       0.1798035 0.2294901 -0.24147695 -0.14061418
000080 56 f3 e0 be c7 67 99 3c 5b 21 80 be cf e6 83 3e
       -0.4393565 0.018726243 -0.25025448 0.2576203
000090 95 c5 d8 bd 4e 2e 8c be 4c 98 91 3c 1e 3b 42 3e
       -0.10584561 -0.27379078 0.017772816 0.18967864
0000a0 c1 4d e6 3e 39 f5 9f 3e e7 23 17 be 7a f3 cc 3e
       0.44981197 0.31241778 -0.1475979 0.40029508
0000b0 69 12 b7 3e cc 56 a3 be ef 8a 17 3e d8 9c ba bd
       0.35756233 -0.31902158 0.14799093 -0.09111947
0000c0 81 82 4f 3d 36 51 f8 3e ca 1a dd 3d 91 7e b1 3e
       0.050661568 0.4849946 0.10796125 0.34666875
0000d0 40 c8 92 3e ed 61 ac bd ca a3 c3 bd 35 3a c1 3d
       0.28668404 -0.08417115 -0.09552725 0.0943493
0000e0 12 6d 96 be 8f e3 fc bc 44 bf 8b 3e f7 2a 3d be
       -0.2938009 -0.030870227 0.27294362 -0.18473421
0000f0 c3 65 4d be 35 e1 41 be 5b 57 89 3e 86 0c 90 3e
       -0.2005835 -0.18933566 0.2682446 0.28134555
000100 40 20 48 3e 6a c4 a5 be 09 97 b2 bc ad c7 4e be
       0.19543552 -0.32376415 -0.021800535 -0.20193358
000110 d1 82 28 be a6 77 87 3e 21 85 a8 3d 3c dd 6d 3e
       -0.16456152 0.26458472 0.08228517 0.23228925

arr_3 f4 [6]
000000 38 88 8d be ba 2e a6 3e 9a d6 8d be 61 cc 85 be
       -0.2764299 0.32457525 -0.2770279 -0.2613249
000010 9f 55 9c 3e ac bc 87 be
       0.30534074 -0.26511133

arr_4 f4 [6, 1]
000000 19 46 46 bf 6f 66 e2 3e c8 5d 0b bf b4 5c 1e bf
       -0.7745071 0.44218776 -0.54439974 -0.61860204
000010 e6 a7 0f 3f b5 22 d9 be
       0.5611557 -0.42409292
